FCNN-Based/FCNN-Based FY/model/Angle01_2_0.0047.pt (torch, 8587 bytes, 9 tensors)

classifier.0.weight f4 [32, 8]
-0.027497254 0.045960184 -0.032801308 0.20889173 0.33477584 -0.08804252 0.31594458 0.29547483
0.16302493 -0.3500994 -0.023310287 -0.29109636 -0.28732806 -0.12111345 0.14105245 -0.21555734
-0.13855398 -0.2274426 0.26420143 -0.10599532 -0.18054195 -0.08149123 -0.21966638 -0.30164665
0.121675745 -0.027444348 0.32516474 -0.01994699 -0.06986222 0.0660604 0.07028259 -0.02226378
-0.10833581 -0.09520445 0.17966662 -0.028305266 0.31612265 0.3438626 -0.1011514 0.26229277
-0.32154855 -0.088479266 -0.004192694 0.09874069 -0.19823849 -0.29325774 -0.22214766 -0.110252
-0.36752614 0.36698186 -0.25079337 -0.3155523 0.1848641 0.26769382 -0.30390543 -0.17392156
-0.006618535 -0.20726173 0.39384806 0.12074565 -0.33924705 -0.10807701 0.1690166 0.09187418
0.33270618 -0.09539932 -0.19695568 0.31733146 -0.15748836 0.11537195 -0.31008127 0.1157266
-0.17154634 0.23846252 0.19907606 0.25697255 -0.17490621 0.24787928 0.15909825 -0.14975803
0.1791871 -0.036563914 0.40196875 0.22770946 0.01982381 0.20223004 -0.22862409 0.35416692
-0.13979188 -0.25754535 -0.052883234 -0.30032077 -0.21199374 -0.34058067 -0.26625448 0.20523983
0.42363665 0.1126246 0.35825586 0.13336581 -0.05196882 -0.10412163 0.11023295 0.45569396
-0.060079966 -0.28656566 0.1521647 -0.37097168 -0.09329105 -0.4085608 -0.30572733 -0.4683668
0.19031093 0.36977977 -0.3779731 -0.3232889 -0.10540626 -0.015529605 0.3176994 -0.0555179
-0.085374236 -0.103970334 -0.34984627 -0.050201386 -0.19472025 0.3208709 -0.08719164 0.15347007
0.12079761 -0.32301083 -0.25295585 0.092113174 -0.26630336 -0.22120084 0.3160119 -0.27808222
0.069442056 -0.30054286 -0.06848358 0.22819431 0.36467904 -0.0015508097 -0.02488901 0.2716244
0.15389134 0.3612103 0.13632233 -0.25307393 -0.0286138 0.32167634 0.1091544 -0.17211097
0.14567079 -0.07858554 0.25167346 -0.17977531 -0.20842752 -0.3139474 -0.12114245 -0.15363209
0.19063924 -0.016920304 0.10607358 -0.02876813 -0.12897986 0.26100713 0.20222552 -0.108447544
-0.17988548 0.15345906 -0.20699917 0.2602797 -0.03356558 0.24326675 0.049163647 0.39691415
0.20726949 -0.073652044 0.15701541 0.30355662 0.19640134 0.2972257 0.35594076 0.18993609
-0.11130063 0.2330448 -0.35414132 0.22834769 -0.27312592 -0.07717068 0.040814023 -0.3999187
-0.05580987 -0.2194823 -0.111644715 0.14117433 -0.16674437 -0.12166563 -0.11847857 -0.14776638
-0.2504984 0.23268837 -0.04185737 0.07608667 0.2689227 0.0046536233 0.34851336 0.018350245
0.08328244 -0.23887919 0.28998718 0.27663112 0.1738131 0.13097958 0.078465775 0.13751692
-0.01249895 0.2010494 0.18779856 0.11476915 0.122479655 -0.10479072 0.050892748 -0.0092994785
-0.20158648 0.13048956 0.3280556 0.3538871 0.22576946 -0.19664045 0.22262299 0.29172942
0.12026033 -0.23404352 -0.058497764 0.04302051 -0.06078478 0.376762 0.049085874 0.10307739
0.17443684 0.2373947 0.21932271 0.21610808 -0.025355322 -0.1198316 0.13188006 0.20642324
0.32110602 -0.26961157 0.10865404 -0.21313313 0.36286008 0.045322202 0.2784293 -0.14645337
00000000: ec41 e1bc bf40 3c3d aa5a 06bd b7e7 553e
00000010: bd67 ab3e a34f b4bd 7dc3 a13e 7a48 973e
00000020: 02f0 263e 3b40 b3be 37f5 bebc 950a 95be
00000030: aa1c 93be 540a f8bd 0e70 103e 10bb 5cbe
00000040: 18e1 0dbe b7e6 68be 6945 873e 1314 d9bd
00000050: fddf 38be e0e4 a6bd 39f0 60be 6e71 9abe
00000060: 2231 f93d f8d2 e0bc fe7b a63e df67 a3bc
00000070: ec13 8fbd ad4a 873d 52f0 8f3d 8862 b6bc
00000080: 2adf ddbd 8dfa c2bd 87fa 373e 72e0 e7bc
00000090: d4da a13e c20e b03e 7728 cfbd 3d4b 863e
000000a0: 03a2 a4be 9e34 b5bd de62 89bb 8f38 ca3d
000000b0: 08ff 4abe e125 96be ad7a 63be cdcb e1bd
000000c0: 632c bcbe 0ce5 bb3e fd67 80be 1290 a1be
000000d0: 044d 3d3e 2a0f 893e 7e99 9bbe 7e18 32be
000000e0: 4ce0 d8bb 6b3c 54be 74a6 c93e 7f49 f73d
000000f0: cab1 adbe 7b57 ddbd b012 2d3e 8828 bc3d
00000100: 7758 aa3e b860 c3bd c0ae 49be 4579 a23e
00000110: a144 21be 2148 ec3d f9c2 9ebe 1102 ed3d
00000120: d8a9 2fbe 852f 743e 98da 4b3e e891 833e
00000130: 9d1a 33be 11d4 7d3e a7ea 223e 2b5a 19be
00000140: d37c 373e 0bc4 15bd d9ce cd3e ab2c 693e
00000150: 8b65 a23c 6415 4f3e 6f1c 6abe 5e55 b53e
00000160: 9a25 0fbe fcdc 83be 179c 58bd a5c3 99be
00000170: e314 59be 9760 aebe 8252 88be 642a 523e
00000180: e7e6 d83e baa7 e63d 506d b73e 0c91 083e
00000190: 42dd 54bd b93d d5bd d0c1 e13d b850 e93e
000001a0: 6916 76bd bcb8 92be 10d1 1b3e 00f0 bdbe
000001b0: 610f bfbd e22e d1be 4b88 9cbe c6cd efbe
000001c0: dee0 423e c653 bd3e b185 c1be 1f86 a5be
000001d0: 3ddf d7bd e26f 7ebc 7fa9 a23e bd66 63bd
000001e0: b0d8 aebd 66ee d4bd 0d1f b3be f89f 4dbd
000001f0: bf64 47be 3149 a43e 8891 b2bd 4227 1d3e
00000200: bd64 f73d ad61 a5be 6e83 81be d5a5 bc3d
00000210: ea58 88be 7982 62be 50cc a13e cb60 8ebe
00000220: a337 8e3d c1e0 99be 1f41 8cbd c5ab 693e
00000230: 36b7 ba3e 8a44 cbba 09e4 cbbc 5a12 8b3e
00000240: b195 1d3e 8ef0 b83e 1598 0b3e e892 81be
00000250: 7d67 eabc c3b2 a43e 588c df3d dc3d 30be
00000260: b92a 153e 75f1 a0bd 58db 803e 0517 38be
00000270: 066e 55be b7bd a0be 8819 f8bd bb51 1dbe
00000280: ef36 433e 739c 8abc 1b3d d93d 24ab ebbc
00000290: 4c13 04be baa2 853e 3514 4f3e bf19 debd
000002a0: e633 38be 5f24 1d3e 97f7 53be 6143 853e
000002b0: 107c 09bd eb1a 793e d25f 493d 5538 cb3e
000002c0: 743e 543e e2d6 96bd a6c8 203e c66b 9b3e
000002d0: 6f1d 493e f82d 983e de3d b63e 9b7e 423e
000002e0: 96f1 e3bd 4ca3 6e3e 0352 b5be fad3 693e
000002f0: 29d7 8bbe a90b 9ebd 9b2c 273d 25c2 ccbe
00000300: e498 64bd f8bf 60be fca5 e4bd 0190 103e
00000310: 09bf 2abe d42b f9bd e4a4 f2bd 1250 17be
00000320: 5441 80be dc45 6e3e a272 2bbd 54d3 9b3d
00000330: 3cb0 893e 6c7d 983b 5870 b23e 4153 963c
00000340: fc8f aa3d bf9c 74be 3379 943e 98a2 8d3e
00000350: 10fc 313e 831f 063e aab2 a03d 3cd1 0c3e
00000360: 65c8 4cbc e5df 4d3e 444e 403e 170c eb3d
00000370: 9dd6 fa3d 849c d6bd ea74 503d d75c 18bc
00000380: b06c 4ebe 0e9f 053e e7f6 a73e b130 b53e
00000390: 1c30 673e 1d5c 49be 48f7 633e 8f5d 953e
000003a0: 0c4b f63d 1ba9 6fbe 5a9b 6fbd 4636 303d
000003b0: 76f9 78bd f3e6 c03e 450e 493d 3d1a d33d
000003c0: 929f 323e 9917 733e 2296 603e 704b 5d3e
000003d0: f7b5 cfbc 456a f5bd 910b 073e 9d60 533e
000003e0: 0268 a43e 870a 8abe 0286 de3d 923f 5abe
000003f0: ccc8 b93e c6a3 393d 498e 8e3e dff7 15be

classifier.0.bias f4 [32]
-0.04215918 0.13123916 0.027949937 0.032457966 -0.046063 0.08302509 0.07200824 0.043436788
0.2275814 0.28231478 0.3236019 -0.3838918 0.04982211 0.28662676 -0.07408125 -0.09445124
-0.05669624 0.11099191 0.16261996 0.23906122 -0.24531148 0.132483 0.026571002 -0.40682194
0.39689043 0.32117358 0.21810764 0.33990422 -0.039365124 -0.19656926 -0.2344656 0.08044546
00000000: 1baf 2cbd 8f63 063e 44f7 e43c a5f2 043d
00000010: 8eac 3cbd 0f09 aa3d 0e79 933d c6ea 313d
00000020: 190b 693e 908b 903e 26af a53e 778d c4be
00000030: 4512 4c3d bec0 923e e9b7 97bd a76f c1bd
00000040: 513a 68bd ba4f e33d d985 263e 77cc 743e
00000050: ef32 7bbe a0a9 073e 6eab d93c f74a d0be
00000060: 3935 cb3e dd70 a43e 9c57 5f3e ed07 ae3e
00000070: 533d 21bd 7449 49be c017 70be 97c0 a43d

classifier.2.weight f4 [16, 32]
0.0067055128 0.022505492 0.13220894 -0.08259989 0.13967098 0.0656346 -0.14149724 0.26578468
0.01713802 -0.092676155 0.08099432 -0.079173096 -0.088687435 -0.1597817 0.059004605 0.14706561
-0.014416051 0.14822139 -0.12770995 0.15035991 0.017645076 0.022390781 -0.06702322 0.030421754
0.052038014 -0.042618316 -0.012414588 0.042989627 -0.14563978 0.11657375 0.1006565 -0.15175726
0.0514037 -0.036752548 -0.033917375 0.09287474 0.020009993 -0.19180731 0.0075647123 0.19999395
0.10179124 0.12190232 0.12691355 -0.056486152 0.17695005 -0.15385973 0.00735291 0.10621995
-0.22309372 0.12082838 0.19298016 -0.22691575 0.18977515 0.113854274 0.2111858 -0.08278608
0.056493662 0.17307976 -0.06112029 -0.11823539 0.11698707 0.2902358 0.2110486 0.05663283
0.04160487 -0.21810721 0.043737013 0.08806895 0.23800421 -0.20611931 -0.21136057 0.17917958
0.04483339 0.03461651 0.19302495 -0.20358586 0.16830672 -0.07412296 -0.2343786 0.09871289
0.026127614 0.24994007 -0.1262852 -0.16915032 -0.05630147 0.13569474 0.1010433 -0.20506316
-0.07835993 0.11989114 -0.00067836256 0.03025318 0.13114983 -0.06001676 0.08835116 0.14423887
0.10189411 0.023886705 -0.18007696 0.12629062 0.1258534 -0.104963124 -0.20121396 0.29418206
0.31164065 0.07325693 -0.03481749 -0.074421145 0.22024158 0.09772415 -0.13638456 -0.0018519412
-0.17159873 0.2006632 0.055371128 0.02411162 0.111188576 0.1292828 0.21104366 -0.26574782
-0.1296519 -0.052373115 0.2544108 0.1863772 0.037782285 -0.0077666966 -0.09402388 0.007931973
-0.13268912 0.05483133 -0.04998537 0.079610005 0.008950491 -0.14111845 0.045614276 -0.032631453
-0.23446715 -0.1558577 -0.011254316 0.14288872 -0.100673966 -0.067529686 0.03486762 -0.1933112
0.11765391 0.09890626 -0.15629314 0.0074079637 -0.014316674 -0.017701102 -0.08288169 0.0063649975
0.12220084 0.02292329 -0.059930645 0.037079707 -0.025786443 -0.23576458 -0.19015701 0.1105658
0.017356249 0.06907778 -0.0368289 0.052593634 0.06563514 -0.039485425 0.15309241 -0.2197826
0.0010498223 0.10868856 0.03209341 -0.07321806 -0.07229525 0.13905913 0.19409662 0.15801688
0.16743048 -0.15667658 -0.024744365 0.14313817 -0.10416101 -0.16217792 -0.030377429 0.07965758
0.10974992 -0.10838773 -0.06068997 -0.007155603 0.006854003 -0.115690805 -0.17354773 0.12029232
-0.05300525 -0.22252853 -0.16107754 0.23719205 0.2369786 0.0688131 -0.0007859632 0.19760895
0.28248465 0.15648443 0.05716369 -0.06424075 0.2246858 -0.19917984 -0.12572 -0.06774851
0.011706942 0.044956185 0.04275767 0.02117375 0.069316305 0.020829549 0.082003154 -0.1615117
0.1137371 0.04716552 0.15046662 0.17004986 -0.041255422 0.18248712 0.13327256 -0.112402655
-0.1911529 0.17242329 -0.0381518 0.0925427 -0.042848043 -0.0048256544 0.078583 -0.22128151
-0.041227255 -0.055328418 0.05771102 -0.068985954 0.0152458735 -0.057122402 0.26278195 -0.044827383
-0.03488359 -0.14154387 -0.13435781 -0.11790933 0.04459267 -0.03968779 -0.19995826 -0.04416333
-0.04790814 -0.028506264 -0.11493384 -0.17724667 -0.13252045 0.06084333 -0.043291207 -0.019793795
00000000: ebb9 db3b 705d b83c c861 073e 222a a9bd
00000010: e905 0f3e 6f6b 863d a7e4 10be ee14 883e
00000020: 0865 8c3c ffcc bdbd 5ae0 a53d 8125 a2bd
00000030: c2a1 b5bd d09d 23be d0ae 713d 5e98 163e
00000040: 4d31 6cbc 59c7 173e 66c6 02be f3f7 193e
00000050: 688c 903c df6c b73c 7843 89bd 0b37 f93c
00000060: d025 553d 8b90 2ebd 8e66 4bbc e415 303d
00000070: 9822 15be 38be ee3d ff24 ce3d 4166 1bbe
00000080: b08c 523d d789 16bd f2ec 0abd 1d35 be3d
00000090: ffeb a33c 2369 44be 68e1 f73b 37cb 4c3e
000000a0: ed77 d03d eca7 f93d a0f5 013e 065e 67bd
000000b0: 6532 353e 688d 1dbe aef0 f03b d889 d93d
000000c0: ae72 64be df74 f73d 979c 453e 9a5c 68be
000000d0: 6b54 423e 6e2c e93d 1741 583e c08b a9bd
000000e0: e665 673d d23b 313e 4559 7abd 6525 f2bd
000000f0: eb96 ef3d c999 943e 201d 583e d4f7 673d
00000100: de69 2a3d 7f57 5fbe 9525 333d 7e5d b43d
00000110: 60b7 733e f110 53be e86e 58be da7a 373e
00000120: 37a3 373d 0bca 0d3d 55a8 453e d078 50be
00000130: 9958 2c3e c7cd 97bd f200 70be fc29 ca3d
00000140: 9409 d63c 4af0 7f3e e850 01be be35 2dbe
00000150: 5f9c 66bd 90f3 0a3e caef ce3d 14fc 51be
00000160: 2c7b a0bd 7c89 f53d 24d4 31ba 84d5 f73c
00000170: 244c 063e 22d4 75bd 74f1 b43d 5bb3 133e
00000180: dcad d03d 0dae c33c 1866 38be 5452 013e
00000190: b7df 003e e8f6 d6bd 080b 4ebe 089f 963e
000001a0: 5d8f 9f3e bb07 963d c99c 0ebd 1d6a 98bd
000001b0: 0287 613e 9923 c83d 65a8 0bbe d6bc f2ba
000001c0: 94b7 2fbe a77a 4d3e d6cc 623d bb85 c53c
000001d0: d6b6 e33d b662 043e d41b 583e 1910 88be
000001e0: 78c3 04be 3185 56bd 2242 823e aad9 3e3e
000001f0: 99c1 1a3d c67f febb 988f c0bd 1bf5 013c
00000200: a8df 07be d196 603d 76bd 4cbd 920a a33d
00000210: 15a5 123c 5b81 10be 09d6 3a3d 8fa8 05bd
00000220: 2818 70be 2999 1fbe 0664 38bc 6c51 123e
00000230: 272e cebd 014d 8abd 59d1 0e3d 5ff3 45be
00000240: 88f4 f03d 5e8f ca3d 4f0b 20be 81be f23b
00000250: 7c90 6abc e701 91bc e0bd a9bd 7891 d03b
00000260: 6f44 fa3d a0c9 bb3c d679 75bd e4e0 173d
00000270: 173e d3bc 456c 71be 85b8 42be 5270 e23d
00000280: b12e 8e3c a778 8d3d e7d9 16bd 6c6c 573d
00000290: b76b 863d 78bb 21bd 42c4 1c3e b10e 61be
000002a0: 319a 893a 1c98 de3d 6174 033d 5af3 95bd
000002b0: 880f 94bd 8465 0e3e 44c1 463e 2dcf 213e
000002c0: e572 2b3e d36f 20be b2b4 cabc d092 123e
000002d0: 5e52 d5bd f811 26be 16da f8bc 8323 a33d
000002e0: 91c4 e03d 63fa ddbd 0c96 78bd 8c79 eabb
000002f0: 8b97 e03b 4def ecbd 7fb6 31be d25b f63d
00000300: 081c 59bd 85de 63be 83f1 24be 79e2 723e
00000310: 85aa 723e e2ed 8c3d 1909 4eba 005a 4a3e
00000320: d4a1 903e 743d 203e 7924 6a3d a890 83bd
00000330: 0914 663e cdf5 4bbe bebc 00be bbbf 8abd
00000340: 79ce 3f3c fa23 383d ab22 2f3d 9274 ad3c
00000350: b5f5 8d3d bba2 aa3c 45f1 a73d 5363 25be
00000360: ffee e83d a230 413d ec13 1a3e 8d21 2e3e
00000370: 72fb 28bd e7dd 3a3e 9a78 083e 5d33 e6bd
00000380: 96bd 43be bb8f 303e 1045 1cbd 0787 bd3d
00000390: 6e81 2fbd 8620 9ebb 20f0 a03d 9f97 62be
000003a0: e9dd 28bd 0da0 62bd 6462 6c3d 8248 8dbd
000003b0: d4c9 793c 2ef9 69bd 5b8b 863e eb9c 37bd
000003c0: 18e2 0ebd e0f0 10be 1895 09be 727a f1bd
000003d0: cea6 363d aa8f 22bd dcc1 4cbe 9ce4 34bd
000003e0: 533b 44bd f885 e9bc 6f62 ebbd 2780 35be
000003f0: 71b3 07be db36 793d 1f52 31bd 9926 a2bc

classifier.2.bias f4 [16]
-0.04665588 -0.020927599 -0.038340084 -0.06135059 -0.06354874 -0.1914204 -0.05326115 -0.17432278
0.10344008 0.20602092 -0.010656138 0.062754914 0.1201805 -0.16366246 0.07799618 -0.19433063
00000000: 3c1a 3fbd 5b70 abbc 7e0a 1dbd c24a 7bbd
00000010: d825 82bd b603 44be 5d28 5abd ac81 32be
00000020: 65d8 d33d 26f7 523e 1597 2ebc a685 803d
00000030: 3221 f63d 2297 27be 76bc 9f3d 9cfe 46be

classifier.4.weight f4 [8, 16]
0.14670202 -0.16555884 0.29319635 0.2969199 0.14332677 0.044404697 0.2937436 -0.017220289
-0.23142691 -0.04575381 0.2253813 -0.20394234 -0.2053269 -0.014905931 0.10025358 0.25749817
0.11886763 0.27369684 -0.060596883 -0.0128606735 -0.23187312 0.004220302 0.2270414 0.0008550724
0.13389662 -0.19589615 0.23181997 0.019922182 0.10957081 0.121169575 -0.1519316 0.031766552
0.11846022 -0.02057505 0.32174286 -0.024455091 -0.2801626 0.071201816 0.3125147 -0.082696915
0.20272048 0.031191874 -0.110782914 0.038548533 -0.10012197 -0.1766039 0.24179366 0.27558997
0.22528327 -0.025778105 0.091386855 0.22046661 0.052753896 0.08406733 0.18228218 0.072654106
0.23559251 0.09011096 -0.15324685 0.16927907 0.15500358 -0.09286726 -0.11241146 -0.1256981
0.17352286 0.00812075 -0.20741446 -0.027380332 -0.071674615 0.18825652 -0.008005578 -0.041023493
0.035514493 0.06418342 -0.13505965 0.2206028 -0.22427456 -0.2301371 0.095147125 0.1948961
-0.06755863 0.31075418 0.31090146 0.057543553 -0.10573326 -0.27706832 0.32428327 -0.1999039
0.16193134 0.214448 0.036217898 -0.20471136 -0.13012561 -0.12630826 -0.04382407 -0.102036186
0.2421352 -0.07744424 -0.016395112 -0.30942377 -0.13553041 0.25342277 -0.040499195 0.0031331116
-0.032450344 -0.24653824 0.18210232 0.1225515 -0.12986024 -0.2761115 -0.068149 -0.011621853
0.1543493 -0.1510714 -0.17546557 0.3096073 0.07855295 -0.0006042227 -0.14944158 0.18281181
0.09838791 -0.051201724 0.0641021 0.0016855996 -0.033004567 0.013857244 0.08671894 -0.043008704
00000000: 0e39 163e 4288 29be d51d 963e e305 983e
00000010: 41c4 123e b3e1 353d 9065 963e 9011 8dbc
00000020: 2dfb 6cbe 5968 3bbd 5bca 663e 43d6 50be
00000030: 3741 52be 0238 74bc c051 cd3d cdd6 833e
00000040: df70 f33d fe21 8c3e 7034 78bd 93b5 52bc
00000050: 2670 6dbe 764a 8a3b 8a7d 683e f026 603a
00000060: 321c 093e 0099 48be 3762 6d3e d833 a33c
00000070: a966 e03d c127 f83d f593 1bbe a51d 023d
00000080: 469b f23d 028d a8bc 7bbb a43e 0b56 c8bc
00000090: 7971 8fbe 42d2 913d ed01 a03e 005d a9bd
000000a0: f595 4f3e 1a86 ff3c 27e2 e2bd 11e5 1d3d
000000b0: bf0c cdbd a7d7 34be c298 773e 211a 8d3e
000000c0: a8b0 663e 9b2c d3bc 0829 bb3d 00c2 613e
000000d0: 7814 583d 7e2b ac3d 2ea8 3a3e adcb 943d
000000e0: 2a3f 713e 188c b83d beec 1cbe 7e57 2d3e
000000f0: 42b9 1e3e 3131 bebd fb37 e6bd 01b7 00be
00000100: faaf 313e e50c 053c 7564 54be b84c e0bc
00000110: 24ca 92bd 51c6 403e d429 03bc 4008 28bd
00000120: a577 113d 9972 833d 144d 0abe b3e5 613e
00000130: 3ba8 65be 0fa9 6bbe 7fdc c23d d892 473e
00000140: 2e5c 8abd 2c1b 9f3e 7a2e 9f3e cab2 6b3d
00000150: ae8a d8bd e6db 8dbe 7508 a63e 9cb3 4cbe
00000160: 54d1 253e 4298 5b3e 3859 143d db9f 51be
00000170: a63f 05be f456 01be de80 33bd 59f8 d0bd
00000180: 4af2 773e 169b 9ebd 0b4f 86bc cb6c 9ebe
00000190: 7cc8 0abe a1c0 813e 7ce2 25bd e454 4d3b
000001a0: a7ea 04bd 8574 7cbe 0879 3a3e 48fc fa3d
000001b0: 15fa 04be 7d5e 8dbe b491 8bbd 9669 3ebc
000001c0: be0d 1e3e 76b2 1abe 3fad 33be d984 9e3e
000001d0: 5ee0 a03d b364 1eba 3707 19be 0533 3b3e
000001e0: 9a7f c93d e6b8 51bd f647 833d 56ef dc3a
000001f0: cc2f 07bd 7e09 633c b399 b13d e529 30bd

classifier.4.bias f4 [8]
0.16934678 0.1893302 -0.092759326 0.22488464 0.16659325 0.15952924 -0.23651995 0.08945527
00000000: 3e69 2d3e c7df 413e 9af8 bdbd 2948 663e
00000010: 6c97 2a3e a25b 233e 4932 72be 5334 b73d

classifier.6.weight f4 [4, 8]
0.14913994 -0.033524927 0.18642186 -0.084286354 -0.32074785 0.27420926 -0.23630698 0.060998973
0.059465233 0.19337203 0.03126268 0.29538 -0.28172812 0.34485635 -0.028423587 0.272222
0.17772917 0.22477438 0.26259613 0.04733087 -0.13582584 -0.3867189 -0.04649135 0.18302363
0.24229 -0.23483764 0.21737564 -0.24115495 0.071177125 0.12710601 0.021160223 -0.18423404
00000000: 24b8 183e 6f51 09bd 5fe5 3e3e 539e acbd
00000010: 1039 a4be 2865 8c3e 75fa 71be 0fda 793d
00000020: d191 733d 5103 463e 4c0d 003d 0c3c 973e
00000030: ab3e 90be 0391 b03e 95d8 e8bc af60 8b3e
00000040: a3fe 353e 412b 663e 0073 863e 04de 413d
00000050: ee15 0bbe 0500 c6be b76d 3ebd 8c6a 3b3e
00000060: df1a 783e 4779 70be b897 5e3e 53f1 76be
00000070: 50c5 913d 1428 023e 3458 ad3c d9a7 3cbe

classifier.6.bias f4 [4]
0.10879639 -0.0129272 -0.04319479 -0.039164767
00000000: a4d0 de3d 9bcc 53bc 05ed 30bd 3c6b 20bd

classifier.8.weight f4 [1, 4]
0.33009684 0.45860094 -0.047716767 0.026960488
00000000: 7402 a93e becd ea3e a872 43bd 3edc dc3c
