FCNN-Based/FCNN-Based FX/model/Angle01_2_0.0047.pt (torch, 8459 bytes, 9 tensors)

classifier.0.weight f4 [32, 7]
0.15907453 0.32179508 0.02536923 0.36971164 0.25421488 -0.13738324 0.35062712 -0.24112609
-0.07922544 0.0057371533 -0.2355862 -0.28466794 -0.25751027 0.23268582 -0.029140681 -0.40801415
-0.06908794 0.3922701 0.380745 0.37826857 -0.13193537 0.016632557 -0.19033115 -0.004919042
0.4095624 0.15338416 -0.20032606 0.28101447 0.3808729 0.04533499 0.056638658 -0.08650564
0.120327964 0.39811265 0.045892913 -0.08340525 -0.33608955 -0.118855566 -0.0760188 -0.06435197
0.2587859 -0.4042022 -0.027354386 -0.14739467 -0.17273183 0.32538453 0.136474 0.48765644
0.17001495 -0.09954888 0.3863871 0.2097544 0.15883188 0.09334927 -0.16862331 0.36793503
0.21602102 -0.40475962 0.4194077 0.37102142 -0.38637042 -0.13008642 0.09051746 0.25738928
0.32418624 0.34098044 -0.03511805 0.22563793 -0.12076489 0.3667252 -0.054194797 0.1356829
0.3264728 0.12294519 0.22969766 0.39467558 0.22722441 0.3601149 -0.18073155 0.29000303
0.07011313 -0.109825134 0.32445714 -0.30813482 0.270586 -0.05650083 -0.099629745 0.10953971
-0.088924065 -0.3342136 -0.2599997 0.16938967 -0.20203815 0.006169388 0.26305133 0.13268924
-0.040849138 0.30215958 0.043575563 0.04290229 0.36906812 0.3118088 0.06398704 0.023797685
-0.32805988 -0.36463532 -0.25578317 -0.3984205 -0.36243895 -0.3369724 -0.2802039 0.088801324
-0.31078824 -0.033832174 -0.36621484 -0.052347887 0.27347544 -0.15407877 0.13518506 0.29044545
0.32451248 0.14776011 0.0041920226 0.28149468 0.4069022 -0.26938984 0.12506427 -0.12553856
-0.18001245 -0.1586117 -0.25707588 0.22961551 -0.1847254 -0.24471657 0.35767284 0.32488242
0.26414296 0.27845564 -0.24832846 -0.15306859 -0.06522202 0.030688064 0.01027089 -0.05257574
0.17983389 0.19902843 -0.36736804 -0.19891694 -0.031777315 -0.32262808 -0.16445474 -0.12589982
-0.26135677 0.023634048 0.1970466 0.11216323 -0.28172186 -0.19397987 -0.12014524 -0.19072063
-0.046638895 -0.37395027 0.30289376 0.034159113 -0.19738336 -0.2676933 -0.29241985 -0.389155
0.13146983 0.27624074 -0.054198034 -0.021495301 -0.22192518 -0.26064348 -0.13365649 0.21637096
0.12021137 -0.111723036 -0.37208807 -0.042546295 -0.44428095 -0.061047412 0.30196398 0.045227412
0.17564428 0.25450328 0.20846467 0.13453856 0.15623496 0.11359229 0.30750823 0.16989675
0.26476553 -0.25243995 0.2372022 0.30737114 0.20938116 -0.35094032 0.2446759 -0.24570288
0.18560648 0.35803613 -0.11674668 -0.24867485 -0.102180794 -0.21857077 -0.35130465 -0.12299488
0.030200575 -0.022483207 0.19553348 0.056510914 0.09672494 0.045725923 -0.3639509 -0.13367648
-0.24573688 0.4105111 0.33829716 -0.11643188 0.2754025 0.25764677 0.48375782 0.29461056
00000000: 6fe4 223e 53c2 a43e 22d3 cf3c d84a bd3e
00000010: 7428 823e 31ae 0cbe 6685 b33e c2e9 76be
00000020: f340 a2bd bbfe bb3b 823d 71be ffbf 91be
00000030: 63d8 83be 3145 6e3e 70b8 eebc 3be7 d0be
00000040: fa7d 8dbd a0d7 c83e 02f1 c23e 6bac c13e
00000050: 111a 07be 0041 883c 2be6 42be ea2f a1bb
00000060: 2ab2 d13e bd10 1d3e 4622 4dbe 21e1 8f3e
00000070: c601 c33e 2fb1 393d f0fd 673d de29 b1bd
00000080: 826e f63d 6cd5 cb3e 35fa 3b3d 5fd0 aabd
00000090: ee13 acbe 8c6a f3bd bfaf 9bbd f7ca 83bd
000000a0: 967f 843e 97f3 cebe 4e16 e0bc a1ee 16be
000000b0: 9de0 30be cd98 a63e d7bf 0b3e 1bae f93e
000000c0: 6618 2e3e 48e0 cbbd 88d4 c53e dcc9 563e
000000d0: d3a4 223e e72d bf3d 97ab 2cbe fb61 bc3e
000000e0: 9d34 5d3e a73c cfbe 9bbc d63e 85f6 bd3e
000000f0: 58d2 c5be 6035 05be 3861 b93d 87c8 833e
00000100: bdfb a53e fd94 ae3e f2d7 0fbd a10d 673e
00000110: 9553 f7bd 68c3 bb3e 5dfb 5dbd 75f0 0a3e
00000120: 7127 a73e b0ca fb3d dd35 6b3e eb12 ca3e
00000130: 84ad 683e fb60 b83e b111 39be 477b 943e
00000140: 7997 8f3d 00ec e0bd 3f1f a63e d9c3 9dbe
00000150: 408a 8a3e 6a6d 67bd ae0a ccbd 5b56 e03d
00000160: d21d b6bd 0c1e abbe ae1e 85be 7c74 2d3e
00000170: 17e3 4ebe 9428 ca3b aaae 863e b0df 073e
00000180: 6d51 27bd a9b4 9a3e 4a7c 323d 50ba 2f3d
00000190: 7ff6 bc3e 67a5 9f3e a30b 833d 5df3 c23c
000001a0: 77f7 a7be 7bb1 babe 03f6 82be c6fd cbbe
000001b0: 9991 b9be a587 acbe e376 8fbe 78dd b53d
000001c0: a31f 9fbe 9b93 0abd 8380 bbbe bd6a 56bd
000001d0: f904 8c3e d3c6 1dbe f46d 0a3e 44b5 943e
000001e0: 8026 a63e 6d4e 173e 3c5d 893b 1220 903e
000001f0: 7c55 d03e 77ed 89be d910 003e 2e8d 00be
00000200: 2f55 38be 1b6b 22be 739f 83be 5420 6b3e
00000210: a828 3dbe fb96 7abe e520 b73e fd56 a63e
00000220: bf3d 873e bd91 8e3e d149 7ebe 03be 1cbe
00000230: 1f93 85bd 8965 fb3c 3c47 283c a959 57bd
00000240: 6026 383e 1cce 4b3e aa17 bcbe e2b0 4bbe
00000250: ee28 02bd 822f a5be d366 28be e2eb 00be
00000260: 8ed0 85be 319c c13c 95c6 493e d6b5 e53d
00000270: d93d 90be a9a2 46be b50e f6bd 454c 43be
00000280: 6d08 3fbd 6976 bfbe e414 9b3e 6dea 0b3d
00000290: dd1e 4abe 190f 89be 0eb8 95be 533f c7be
000002a0: 07a0 063e 6d6f 8d3e c2fe 5dbd ea16 b0bc
000002b0: 5b40 63be 1073 85be 3fdd 08be 5990 5d3e
000002c0: 6131 f63d 0ccf e4bd 5482 bebe 0645 2ebd
000002d0: cb78 e3be da0c 7abd 069b 9a3e 6140 393d
000002e0: 18dc 333e 414e 823e c377 553e 7ac4 093e
000002f0: 0ffc 1f3e 13a3 e83d b871 9d3e 6af9 2d3e
00000300: 598f 873e cf3f 81be 22e5 723e c05f 9d3e
00000310: 0468 563e 73ae b3be 528c 7a3e 8999 7bbe
00000320: a00f 3e3e 8350 b73e e218 efbd 9fa4 7ebe
00000330: 2a44 d1bd 04d1 5fbe 34de b3be bde4 fbbd
00000340: 3267 f73c b42e b8bc ee39 483e fd77 673d
00000350: ba17 c63d 1b4b 3b3d c657 babe 7de2 08be
00000360: 73a2 7bbe 832e d23e 4935 ad3e d673 eebd
00000370: 8e01 8d3e 47ea 833e 1baf f73e 32d7 963e

classifier.0.bias f4 [32]
-0.02509606 0.18418565 -0.17175288 -0.28053543 0.2645216 0.35280406 -0.018392392 0.31225422
0.12931624 0.115633965 -0.03525581 0.32048202 -0.11188516 -0.011224282 -0.27761018 -0.10864464
0.0048027793 -0.21603735 -0.10502664 0.15844794 -0.3707819 0.28308818 -0.061778013 -0.18224454
0.11348046 0.082653955 -0.080501534 -0.42418262 -0.00626518 -0.30245745 0.37388054 0.2589904
00000000: 4196 cdbc 2a9b 3c3e fddf 2fbe 57a2 8fbe
00000010: 606f 873e bca2 b43e a4ab 96bc c9df 9f3e
00000020: 7a6b 043e 80d1 ec3d 6568 10bd 3816 a43e
00000030: 0c24 e5bd 0de6 37bc ec22 8ebe 1581 debd
00000040: a260 9d3b e538 5dbe 3518 d7bd 2d40 223e
00000050: 20d7 bdbe eff0 903e f10a 7dbd 509e 3abe
00000060: 7268 e83d 7a46 a93d fddd a4bd 772e d9be
00000070: 244c cdbb b4db 9abe 456d bf3e 649a 843e

classifier.2.weight f4 [16, 32]
-0.15600567 0.06626546 -0.1520238 -0.04466969 0.05695483 -0.08583307 -0.24818449 -0.09954714
-0.39684165 0.0689204 -0.19165748 -0.119915836 -0.028235931 -0.13497739 -0.16952154 -0.004687024
0.1436463 -0.19621858 0.1525636 -0.07411921 -0.05934989 0.09093042 0.16592176 0.10609585
0.23390393 0.0027296112 -0.24350268 0.08500912 -0.11398307 0.07556862 0.03563155 -0.024232695
0.0023248119 0.10072187 -0.0011801508 -0.12083615 -0.1377211 0.05111471 -0.21819557 0.14244686
-0.10050889 -0.11489963 0.03357286 -0.27535528 0.14013304 0.013901286 -0.1149487 0.10990298
0.13547729 0.12015864 0.04895112 0.14192048 0.07919562 0.11070101 0.15560749 0.22964789
0.112784535 0.15662391 -0.20316792 -0.17673124 -0.27135277 -0.009214423 0.095147245 -0.060354553
-0.19656846 0.021996913 -0.16511498 -0.12273694 -0.020694949 -0.09190205 -0.24505793 0.13643979
-0.2716596 -0.1286213 0.03958214 -0.08035257 -0.022484917 0.026843842 -0.2109467 -0.07897178
0.18364516 0.06422149 0.053877305 0.0337721 -0.032549843 0.019735374 0.16426612 0.16299497
-0.03208062 0.27026734 0.037049934 -0.1556754 -0.23527336 -0.07425991 -0.1249713 0.06849047
0.013759977 0.12873349 -0.06313872 -0.14017643 -0.017896455 0.032667436 -0.2325825 0.009932202
-0.40644786 0.07862867 0.073648654 -0.025827572 -0.0022025136 -0.1449939 -0.11437579 0.17176291
0.03429486 -0.024374552 -0.07511372 0.007317751 -0.16866183 0.015981335 -0.027338514 0.013347454
-0.016464112 0.022881467 -0.18583488 -0.22451007 -0.033819847 -0.068011634 0.09295388 0.036056068
0.060676124 -0.23535608 0.09466206 -0.017897446 0.11316556 0.102022655 0.21308483 0.022933966
0.3064561 0.13901366 0.2356668 0.12353111 -0.08768386 0.13994169 0.24006598 0.035161942
-0.022185117 0.14288084 -0.043877196 0.11203809 0.023102492 -0.062058862 -0.109225355 -0.24992976
-0.15032695 -0.14786988 -0.09053416 -0.061076462 0.13378164 -0.04681391 0.08053238 0.10753128
-0.012187141 0.014150107 -0.0154189365 -0.07250299 0.078164175 0.14341033 0.10905413 -0.046648882
0.04985074 0.13750687 0.18566746 0.09378487 -0.046579488 0.03503521 -0.04758818 0.0867082
-0.04840429 -0.104500435 -0.008959797 -0.14196885 -0.057685535 0.047964077 -0.17579557 -0.10055501
0.024192935 0.064924665 0.07749418 0.18071875 0.25348988 0.08022117 0.07369639 -0.10345549
0.14485513 -0.18142992 0.2953975 0.19826533 -0.058659405 0.13805915 0.24134123 0.15710372
0.21521379 -0.029983995 -0.032462586 0.29466224 -0.21366154 -0.017739601 0.0636727 -0.21660987
-0.10134552 0.027279528 0.14663148 0.08082596 -0.017112557 -0.24593723 -0.016832594 -0.14173487
-0.2294607 0.055745136 -0.07163997 0.12916702 0.21139163 -0.21839496 -0.029081589 0.09289394
0.17801152 0.0767143 0.21608794 0.19797483 0.13727835 -0.028305693 0.15992147 0.17567487
0.10030651 0.22807695 -0.06297307 0.10376954 -0.14831226 0.18528411 0.0039478373 -0.026037943
-0.19269656 0.2099857 -0.19083464 0.17250521 0.18227048 0.011960156 -0.11711768 0.0053984635
-0.11360022 -0.20867395 0.23385955 0.0079340525 0.1794904 0.002237685 0.12010125 0.077247664
00000000: f3bf 1fbe 2fb6 873d 21ac 1bbe 91f7 36bd
00000010: 7849 693d 40c9 afbd 1324 7ebe 5fdf cbbd
00000020: d42e cbbe 2426 8d3d dc41 44be 6f96 f5bd
00000030: 0a4f e7bc 8337 0abe 0e97 2dbe 9b95 99bb
00000040: 0418 133e 86ed 48be a239 1c3e d0cb 97bd
00000050: df18 73bd ba39 ba3d 65e7 293e c848 d93d
00000060: 8384 6f3e 47e3 323b c458 79be 4319 ae3d
00000070: f56f e9bd b8c3 9a3d 63f2 113d a583 c6bc
00000080: df5b 183b 4547 ce3d 4aaf 9aba f278 f7bd
00000090: c306 0dbe a85d 513d a96e 5fbe 97dd 113e
000000a0: 9bd7 cdbd 7f50 ebbd b283 093d 5efb 8cbe
000000b0: 097f 0f3e 38c2 633c 396a ebbd d014 e13d
000000c0: 8fba 0a3e bc15 f63d f880 483d 9a53 113e
000000d0: 5031 a23d 36b7 e23d 9257 1f3e d128 6b3e
000000e0: 94fb e63d 0562 203e 400b 50be 09f9 34be
000000f0: c0ee 8abe 17f8 16bc 8fdc c23d 5636 77bd
00000100: 3e49 49be df32 b43c e713 29be 815d fbbd
00000110: 7488 a9bc 2437 bcbd 77f0 7abe dfb6 0b3e
00000120: f816 8bbe 4db5 03be e220 223d e38f a4bd
00000130: 4a32 b8bc 9ee7 db3c 6902 58be f5bb a1bd
00000140: 7a0d 3c3e 8e86 833d 73ae 5c3d 9d54 0a3d
00000150: fc52 05bd 14ac a13c 6135 283e 27e8 263e
00000160: f866 03bd 7b60 8a3e acc1 173d 5f69 1fbe
00000170: 80eb 70be 9415 98bd f4f0 ffbd bb44 8c3d
00000180: 8771 613c b6d2 033e e04e 81bd 698a 0fbe
00000190: 969b 92bc 4ace 053d 1b2a 6ebe adba 223c
000001a0: ef19 d0be 1108 a13d 1bd5 963d 5894 d3bc
000001b0: 0c58 10bb 4879 14be db3d eabd 9ee2 2f3e
000001c0: c478 0c3d 24ad c7bc 39d5 99bd bfc9 ef3b
000001d0: b0b5 2cbe 4aeb 823c 05f5 dfbc 48af 5a3c
000001e0: bfdf 86bc ea71 bb3c 804b 3ebe f8e5 65be
000001f0: ae86 0abd af49 8bbd 9b5e be3d 87af 133d
00000200: 8787 783d 2f01 71be 2fde c13d aa9d 92bc
00000210: 58c3 e73d 41f1 d03d e932 5a3e 03e0 bb3c
00000220: d0e7 9c3e 9959 0e3e a352 713e e1fd fc3d
00000230: 9893 b3bd e04c 0f3e dbd3 753e f805 103d
00000240: 90bd b5bc 5b4f 123e 93b8 33bd 3a74 e53d
00000250: 7041 bd3c 6f31 7ebd 8bb1 dfbd 96ed 7fbe
00000260: 4fef 19be 346b 17be f969 b9bd 502b 7abd
00000270: 0efe 083e f1bf 3fbd 29ee a43d 5c39 dc3d
00000280: 93ac 47bc dad5 673c b59f 7cbc 737c 94bd
00000290: 8a14 a03d 28da 123e c657 df3d e612 3fbd
000002a0: 4a30 4c3d 9ace 0c3e 9c1f 3e3e 4812 c03d
000002b0: 22ca 3ebd 1581 0f3d d3eb 42bd 1294 b13d
000002c0: 9443 46bd 5304 d6bd 1dcc 12bc 4860 11be
000002d0: ab47 6cbd fb75 443d c103 34be c9ef cdbd
000002e0: 4330 c63c 39f7 843d 45b5 9e3d 560e 393e
000002f0: 6dc9 813e ff4a a43d 22ee 963d 79e0 d3bd
00000300: e754 143e c4c8 39be 573e 973e 1106 4b3e
00000310: d844 70bd 615f 0d3e 2822 773e ccdf 203e
00000320: 0161 5c3e ffa0 f5bc 7df7 04bd f8dd 963e
00000330: 17ca 5abe a452 91bc d566 823d face 5dbe
00000340: 3d8e cfbd 5179 df3c 9026 163e 1588 a53d
00000350: a22f 8cbc f8d6 7bbe 82e4 89bc f222 11be
00000360: bff7 6abe 0355 643d fab7 92bd 5c44 043e
00000370: 0c77 583e eea2 5fbe 833c eebc 2e3f be3d
00000380: a748 363e 631c 9d3d 2846 5d3e eab9 4a3e
00000390: b292 0c3e 57e1 e7bc 74c2 233e 1de4 333e
000003a0: 806d cd3d 018d 693e 06f8 80bd 2085 d43d
000003b0: 2bdf 17be 1ebb 3d3e dc5c 813b 864d d5bc
000003c0: 3f52 45be 7e06 573e 286a 43be 35a5 303e
000003d0: 1da5 3a3e 88f4 433c 65db efbd 98e5 b03b
000003e0: 3ba7 e8bd a0ae 55be e178 6f3e d4fd 013c
000003f0: 55cc 373e 20a6 123b a5f7 f53d 0634 9e3d

classifier.2.bias f4 [16]
0.022558324 -0.09289575 -0.093018055 0.08580261 -0.10982447 -0.1724168 0.102176666 -0.02257244
-0.006262744 -0.042879723 -0.030940704 -0.008333117 0.08805624 0.1645782 0.14359146 -0.10185115
00000000: 3ccc b83c 2140 bebd 4080 bebd 47b9 af3d
00000010: a7eb e0bd 088e 30be 0042 d13d d6e9 b8bc
00000020: b437 cdbb a6a2 2fbd 5c77 fdbc a087 08bc
00000030: d456 b43d 3087 283e a409 133e 5697 d0bd

classifier.4.weight f4 [8, 16]
-0.2019635 0.12885407 0.05669848 0.04938975 0.23452508 -0.123522595 -0.037006177 0.30012637
0.16833209 0.017218957 0.07845161 0.034826856 0.15190978 0.11070618 -0.31519452 0.3142762
0.18102877 0.08019207 0.10742822 0.031152692 0.064478636 0.13295099 -0.09774213 -0.2499876
-0.14005707 0.19651553 0.028824557 -0.24449864 0.16166915 -0.21841826 0.24204141 -0.23611893
0.20911404 0.14287138 0.058481313 0.22365618 -0.09054862 -0.02965925 -0.23107034 -0.17414117
0.2255971 -0.22564217 -0.17748372 -0.17408119 -0.15992823 -0.17248447 0.21470585 0.030263953
-0.14614448 -0.23444536 -0.27811283 -0.30911544 0.10987649 0.028906198 0.1064353 0.28519008
-0.2524617 0.18630446 -0.18835256 0.23256262 -0.21819818 0.24358809 -0.19186477 0.14781888
-0.029665979 0.10511866 -0.08378768 0.15126331 0.06090046 0.17588536 0.2727619 -0.14032812
-0.13340864 -0.10599937 -0.10244159 0.2853507 -0.22776231 0.29304618 -0.12440186 0.30011797
0.16953672 -0.16570367 -0.1385186 -0.005394721 -0.15499017 0.15219653 0.15485689 0.037163455
-0.16290148 -0.18836781 0.035179697 -0.22212222 0.10386533 -0.1380031 0.027818533 -0.29967293
0.22474901 0.24928984 0.1011702 -0.14484876 -0.3296991 -0.23848079 -0.23212661 -0.13716279
-0.010132163 0.038390916 0.09128627 -0.28968892 0.18663684 -0.2059129 -0.12743385 -0.14845853
0.056647185 0.0015815559 0.30012515 0.2713129 -0.30492562 -0.19350232 -0.12476133 -0.30824354
0.16307278 0.038046684 -0.05763323 -0.29811743 0.189177 -0.2480185 0.3209824 -0.3043535
00000000: 85cf 4ebe 52f2 033e aa3c 683d e84c 4a3d
00000010: 5827 703e 6af9 fcbd ca93 17bd 2aaa 993e
00000020: 3f5f 2c3e c50e 8d3c 3dab a03d 9ba6 0e3d
00000030: 3d8e 1b3e ecb9 e23d 2d61 a1be cfe8 a03e
00000040: 9b5f 393e bd3b a43d 5403 dc3d ee33 ff3c
00000050: 600d 843d 4e24 083e 072d c8bd c0fc 7fbe
00000060: 1f6b 0fbe 5e3b 493e 7a21 ec3c da5d 7abe
00000070: 998c 253e 09a9 5fbe b4d9 773e 29c9 71be
00000080: fe21 563e e04c 123e 1a8a 6f3d 2006 653e
00000090: 8e71 b9bd f5f7 f2bc b49d 6cbe 1052 32be
000000a0: ed02 673e be0e 67be 4bbe 35be 5742 32be
000000b0: 3ac4 23be c59f 30be dadb 5b3e 1cec f73c
000000c0: e6a6 15be 7212 70be ce64 8ebe 6144 9ebe
000000d0: ed06 e13d b1cc ec3c c0fa d93d 6f04 923e
000000e0: a942 81be 99c6 3e3e 7edf 40be e524 6e3e
000000f0: 586f 5fbe 286f 793e 3378 44be d55d 173e
00000100: 1106 f3bc 7448 d73d e098 abbd c5e4 1a3e
00000110: c372 793d 4b1b 343e 73a7 8b3e 2db2 0fbe
00000120: 469c 08be 3316 d9bd e5cc d1bd 7d19 923e
00000130: 863a 69be 260a 963e 67c6 febd 10a9 993e
00000140: 099b 2d3e 39ae 29be d2d7 0dbe 33c6 b0bb
00000150: beb5 1ebe 68d9 1b3e ce92 1e3e b538 183d
00000160: a5cf 26be 7ee3 40be 9618 103d 0274 63be
00000170: 59b7 d43d af50 0dbe b1e3 e33c bb6e 99be
00000180: 9b24 663e d645 7f3e 5232 cf3d 3c53 14be
00000190: 52ce a8be 4f34 74be 99b2 6dbe 6774 0cbe
000001a0: 5f01 26bc cb3f 1d3d 4cf4 ba3d 1b52 94be
000001b0: ba1d 3f3e d5da 52be 057e 02be 8305 18be
000001c0: e106 683d 364c cf3a 01aa 993e 86e9 8a3e
000001d0: 361f 9cbe 7925 46be de82 ffbd 19d2 9dbe
000001e0: 8dfc 263e d7d6 1b3d d210 6cbd d9a2 98be
000001f0: 9eb7 413e 90f8 7dbe ce57 a43e 39d4 9bbe

classifier.4.bias f4 [8]
0.05707107 0.017838072 -0.119028576 0.049603198 -0.04555829 -0.19846478 -0.052213408 -0.20743826
00000000: 5bc3 693d 2621 923c 41c5 f3bd b92c 4b3d
00000010: 549b 3abd 5a3a 4bbe badd 55bd b26a 54be

classifier.6.weight f4 [4, 8]
-0.24982436 0.24156147 -0.21839815 0.22364765 -0.0047827517 -0.005846093 0.02855679 0.3968297
-0.10793782 -0.30905056 -0.13394903 0.3526957 0.16222413 -0.21955845 -0.39807862 -0.210178
-0.38013622 -0.07027409 0.31823054 -0.3325732 -0.1414451 0.19902462 0.3714624 0.11261675
0.038261063 0.044372607 0.20234343 -0.18859418 0.27670854 0.006198532 -0.12471681 0.15236875
00000000: f5d1 7fbe e45b 773e c4a3 5fbe e403 653e
00000010: a1b8 9cbb 9590 bfbb eeef e93c 432d cb3e
00000020: 810e ddbd e03b 9ebe ef29 09be 8894 b43e
00000030: 151e 263e eed3 60be f6d0 cbbe e738 57be
00000040: 37a1 c2be ddeb 8fbd 1def a23e 0947 aabe
00000050: fcd6 10be 1ccd 4b3e 5230 be3e 9ca3 e63d
00000060: a2b7 1c3d 0dc0 353d 1e33 4f3e d51e 41be
00000070: beac 8d3e 0e1d cb3b 876b ffbd 8e06 1c3e

classifier.6.bias f4 [4]
-0.08142281 0.33850113 0.13778254 -0.11058987
00000000: 01c1 a6bd 0550 ad3e de16 0d3e f17c e2bd

classifier.8.weight f4 [1, 4]
-0.17513767 0.21794878 -0.57767683 0.016630543
00000000: 4a57 33be f72d 5f3e a1e2 13bf c73c 883c
